============================================================================================================================================
Layer (type (var_name))                                      Input Shape          Output Shape         Param #              Trainable
============================================================================================================================================
EfficientNet (EfficientNet)                                  [32, 3, 384, 384]    [32, 1000]           --                   True
├─Sequential (features)                                      [32, 3, 384, 384]    [32, 1280, 12, 12]   --                   True
│    └─Conv2dNormActivation (0)                              [32, 3, 384, 384]    [32, 24, 192, 192]   --                   True
│    │    └─Conv2d (0)                                       [32, 3, 384, 384]    [32, 24, 192, 192]   648                  True
│    │    └─BatchNorm2d (1)                                  [32, 24, 192, 192]   [32, 24, 192, 192]   48                   True
│    │    └─SiLU (2)                                         [32, 24, 192, 192]   [32, 24, 192, 192]   --                   --
│    └─Sequential (1)                                        [32, 24, 192, 192]   [32, 24, 192, 192]   --                   True
│    │    └─FusedMBConv (0)                                  [32, 24, 192, 192]   [32, 24, 192, 192]   5,232                True
│    │    └─FusedMBConv (1)                                  [32, 24, 192, 192]   [32, 24, 192, 192]   5,232                True
│    └─Sequential (2)                                        [32, 24, 192, 192]   [32, 48, 96, 96]     --                   True
│    │    └─FusedMBConv (0)                                  [32, 24, 192, 192]   [32, 48, 96, 96]     25,632               True
│    │    └─FusedMBConv (1)                                  [32, 48, 96, 96]     [32, 48, 96, 96]     92,640               True
│    │    └─FusedMBConv (2)                                  [32, 48, 96, 96]     [32, 48, 96, 96]     92,640               True
│    │    └─FusedMBConv (3)                                  [32, 48, 96, 96]     [32, 48, 96, 96]     92,640               True
│    └─Sequential (3)                                        [32, 48, 96, 96]     [32, 64, 48, 48]     --                   True
│    │    └─FusedMBConv (0)                                  [32, 48, 96, 96]     [32, 64, 48, 48]     95,744               True
│    │    └─FusedMBConv (1)                                  [32, 64, 48, 48]     [32, 64, 48, 48]     164,480              True
│    │    └─FusedMBConv (2)                                  [32, 64, 48, 48]     [32, 64, 48, 48]     164,480              True
│    │    └─FusedMBConv (3)                                  [32, 64, 48, 48]     [32, 64, 48, 48]     164,480              True
│    └─Sequential (4)                                        [32, 64, 48, 48]     [32, 128, 24, 24]    --                   True
│    │    └─MBConv (0)                                       [32, 64, 48, 48]     [32, 128, 24, 24]    61,200               True
│    │    └─MBConv (1)                                       [32, 128, 24, 24]    [32, 128, 24, 24]    171,296              True
│    │    └─MBConv (2)                                       [32, 128, 24, 24]    [32, 128, 24, 24]    171,296              True
│    │    └─MBConv (3)                                       [32, 128, 24, 24]    [32, 128, 24, 24]    171,296              True
│    │    └─MBConv (4)                                       [32, 128, 24, 24]    [32, 128, 24, 24]    171,296              True
│    │    └─MBConv (5)                                       [32, 128, 24, 24]    [32, 128, 24, 24]    171,296              True
│    └─Sequential (5)                                        [32, 128, 24, 24]    [32, 160, 24, 24]    --                   True
│    │    └─MBConv (0)                                       [32, 128, 24, 24]    [32, 160, 24, 24]    281,440              True
│    │    └─MBConv (1)                                       [32, 160, 24, 24]    [32, 160, 24, 24]    397,800              True
│    │    └─MBConv (2)                                       [32, 160, 24, 24]    [32, 160, 24, 24]    397,800              True
│    │    └─MBConv (3)                                       [32, 160, 24, 24]    [32, 160, 24, 24]    397,800              True
│    │    └─MBConv (4)                                       [32, 160, 24, 24]    [32, 160, 24, 24]    397,800              True
│    │    └─MBConv (5)                                       [32, 160, 24, 24]    [32, 160, 24, 24]    397,800              True
│    │    └─MBConv (6)                                       [32, 160, 24, 24]    [32, 160, 24, 24]    397,800              True
│    │    └─MBConv (7)                                       [32, 160, 24, 24]    [32, 160, 24, 24]    397,800              True
│    │    └─MBConv (8)                                       [32, 160, 24, 24]    [32, 160, 24, 24]    397,800              True
│    └─Sequential (6)                                        [32, 160, 24, 24]    [32, 256, 12, 12]    --                   True
│    │    └─MBConv (0)                                       [32, 160, 24, 24]    [32, 256, 12, 12]    490,152              True
│    │    └─MBConv (1)                                       [32, 256, 12, 12]    [32, 256, 12, 12]    1,005,120            True
│    │    └─MBConv (2)                                       [32, 256, 12, 12]    [32, 256, 12, 12]    1,005,120            True
│    │    └─MBConv (3)                                       [32, 256, 12, 12]    [32, 256, 12, 12]    1,005,120            True
│    │    └─MBConv (4)                                       [32, 256, 12, 12]    [32, 256, 12, 12]    1,005,120            True
│    │    └─MBConv (5)                                       [32, 256, 12, 12]    [32, 256, 12, 12]    1,005,120            True
│    │    └─MBConv (6)                                       [32, 256, 12, 12]    [32, 256, 12, 12]    1,005,120            True
│    │    └─MBConv (7)                                       [32, 256, 12, 12]    [32, 256, 12, 12]    1,005,120            True
│    │    └─MBConv (8)                                       [32, 256, 12, 12]    [32, 256, 12, 12]    1,005,120            True
│    │    └─MBConv (9)                                       [32, 256, 12, 12]    [32, 256, 12, 12]    1,005,120            True
│    │    └─MBConv (10)                                      [32, 256, 12, 12]    [32, 256, 12, 12]    1,005,120            True
│    │    └─MBConv (11)                                      [32, 256, 12, 12]    [32, 256, 12, 12]    1,005,120            True
│    │    └─MBConv (12)                                      [32, 256, 12, 12]    [32, 256, 12, 12]    1,005,120            True
│    │    └─MBConv (13)                                      [32, 256, 12, 12]    [32, 256, 12, 12]    1,005,120            True
│    │    └─MBConv (14)                                      [32, 256, 12, 12]    [32, 256, 12, 12]    1,005,120            True
│    └─Conv2dNormActivation (7)                              [32, 256, 12, 12]    [32, 1280, 12, 12]   --                   True
│    │    └─Conv2d (0)                                       [32, 256, 12, 12]    [32, 1280, 12, 12]   327,680              True
│    │    └─BatchNorm2d (1)                                  [32, 1280, 12, 12]   [32, 1280, 12, 12]   2,560                True
│    │    └─SiLU (2)                                         [32, 1280, 12, 12]   [32, 1280, 12, 12]   --                   --
├─AdaptiveAvgPool2d (avgpool)                                [32, 1280, 12, 12]   [32, 1280, 1, 1]     --                   --
├─Sequential (classifier)                                    [32, 1280]           [32, 1000]           --                   True
│    └─Dropout (0)                                           [32, 1280]           [32, 1280]           --                   --
│    └─Linear (1)                                            [32, 1280]           [32, 1000]           1,281,000            True
============================================================================================================================================
Total params: 21,458,488
Trainable params: 21,458,488
Non-trainable params: 0
Total mult-adds (G): 267.71
============================================================================================================================================
…
